…
 lr              | 0.0001    
 n_layers        | 2         
 num_neg         | 1         
 num_workers     | 5         
 optimizer       | Adam      
 random_seed     | 1         
 stage           | finetune  
 temp            | 0.5       
 test_all        | 0         
 topk            | 5,10,20,50
==============================
INFO:root:Device: cuda
INFO:root:Load corpus from ../data/ml-1m/SeqReader.pkl
INFO:root:Load model from ../model/TiMiRec/Extractor__ml-1m__1__emb_size=64__K=2__add_pos=1__add_trm=1.pt
INFO:root:#params: 526748
INFO:root:TiMiRec(
  (interest_extractor): MultiInterestExtractor(
    (i_embeddings): Embedding(3707, 64)
    (p_embeddings): Embedding(21, 64)
    (W1): Linear(in_features=64, out_features=8, bias=True)
    (W2): Linear(in_features=8, out_features=2, bias=True)
    (transformer): TransformerLayer(
      (masked_attn_head): MultiHeadAttention(
        (q_linear): Linear(in_features=64, out_features=64, bias=True)
        (k_linear): Linear(in_features=64, out_features=64, bias=True)
        (v_linear): Linear(in_features=64, out_features=64, bias=True)
      )
      (layer_norm1): LayerNorm((64,), eps=1e-05, elementwise_affine=True)
      (dropout1): Dropout(p=0, inplace=False)
      (linear1): Linear(in_features=64, out_features=64, bias=True)
      (linear2): Linear(in_features=64, out_features=64, bias=True)
      (layer_norm2): LayerNorm((64,), eps=1e-05, elementwise_affine=True)
      (dropout2): Dropout(p=0, inplace=False)
    )
  )
  (interest_predictor): InterestPredictor(
    (i_embeddings): Embedding(3708, 64)
    (rnn): GRU(64, 64, batch_first=True)
  )
  (proj): Sequential(
    (proj_0): Linear(in_features=64, out_features=64, bias=True)
    (dropout_0): Dropout(p=0.5, inplace=False)
    (relu_0): ReLU(inplace=True)
    (proj_final): Linear(in_features=64, out_features=2, bias=True)
  )
)
INFO:root:Optimizer: Adam
INFO:root:
INFO:root:pred_intent	(73, 2)
[[0.43672073 0.5632793 ]
 [0.42392448 0.57607555]
 [0.4307168  0.56928325]
 ...
 [0.4487181  0.5512819 ]
 [0.4395196  0.5604804 ]
 [0.47604004 0.52396   ]]

INFO:root:target_intent	(73, 2)
[[0.42871806 0.5712819 ]
 [0.39385873 0.60614127]
 [0.41785514 0.58214486]
 ...
 [0.40491864 0.5950814 ]
…
